checkpoint_actor.pth (torch_old, 169476 bytes, 6 tensors)

fc1.weight f4 [256, 33]
-0.015325598 0.108905494 -0.085178785 0.01882296 0.04034075 0.42136306 -0.05398761 0.21739596
0.15258022 -0.06431146 -0.059240475 -0.011708648 -0.107080095 -0.33852834 -0.15460216 -0.07569221
0.2007892 -0.06372291 -0.019819874 -0.003015803 -0.09722135 0.2137332 -0.02262383 -0.23775536
0.0132413125 -0.02267568 0.21326001 -0.0034300531 -0.17952472 0.030105263 0.028919447 0.0473411
0.27815017 0.3797334 0.3293086 -0.04567135 0.036926903 0.2949704 0.2287101 -0.014296189
-0.028852804 0.048761502 0.112724744 0.074112125 -0.18652618 -0.17806122 0.09658828 -0.11805005
0.044491325 -0.115815096 0.07056885 0.0053045377 -0.08990638 0.20397536 0.10957635 0.107713096
0.013259937 0.122829944 -0.07757053 -0.2096435 0.056736015 -0.049564015 0.011548907 -0.04335919
0.041798443 -0.23683822 -0.12822668 0.35441512 -0.15000303 -0.10134491 0.14807302 0.19510934
0.073103614 0.07041332 0.053956967 -0.11530968 0.046507657 0.07528204 0.22178116 -0.040528324
0.09253984 0.0061682304 0.1416886 -0.08404307 0.16484272 -0.06039165 0.26441768 0.26433563
-0.20789155 0.08181549 -0.26914346 0.23002352 -0.01771221 0.115686215 0.18670626 0.0069766343
-0.10287069 0.005792819 -0.65673584 0.124899104 0.35412657 0.081845656 -0.04722621 0.14796922
0.19176704 -0.039248843 0.07414007 0.007862445 0.16130689 0.13520305 0.018204706 -0.29643443
0.08283424 0.22002546 -0.10730978 -0.020236801 0.16151541 0.10737195 0.062299415 -0.20157547
-0.19021 -0.09896626 0.20442003 -0.13343246 0.12010997 0.07493536 0.23130849 0.028368067
0.018407807 -0.2004382 -0.043636277 -0.0032792175 0.28663787 0.09542811 -0.0068066255 0.006321872
0.13716865 0.06165398 -0.09133261 -0.030343119 -0.3631301 0.11435597 0.047128268 -0.0271298
-0.039690647 -0.29905 -0.08133486 -0.074297205 -0.11133053 -0.0074821375 0.03540313 -0.061848417
0.015827367 -0.020230759 0.046109177 -0.0945138 0.018981772 -0.02274955 0.014479981 0.19456397
-0.06486336 -0.0071124285 -0.24110988 -0.05046945 0.067901716 -0.0732307 0.14182648 -0.059468936
-0.09149188 -0.0034140572 -0.14897104 0.005686217 0.12482358 -0.05399883 -0.058694534 -0.07310552
0.019503305 0.08395316 -0.052141957 0.14442794 0.15283868 0.037562337 -0.12750858 -0.07668227
0.03855497 0.17860085 -0.18567775 0.17343809 -0.11492546 0.02088232 -0.14731376 0.14097033
0.07848678 0.1634812 0.061666273 -0.0677548 -0.061769 0.959378 0.22294107 0.013763945
0.0537709 -0.059009604 0.24391598 0.07277453 0.08246497 -0.21013741 0.1446373 0.25410295
0.21990481 -0.04613002 0.102792636 -0.23570387 0.06768869 0.053663686 0.045249693 -0.062160715
-0.19526683 0.10352452 -0.12877037 0.0054423274 0.013596901 -0.018364828 -0.025754659 -0.16491257
0.09580047 -0.009543141 -0.0951074 -0.0531547 0.06340284 -0.061846264 -0.008955273 0.09766393
-0.0068612066 0.27059802 -0.054365907 -0.060370676 0.06172625 0.11972598 0.07032542 -0.14114477
-0.06533516 -0.018473282 0.20463076 -0.031657103 -0.19140075 0.043557305 -0.21211128 -0.17510207
0.04617644 0.06462851 -0.10197538 -0.20265183 0.011638202 -0.025001172 -0.2824346 0.0008911842
00000000: 3818 7bbc d809 df3d 3772 aebd 9c32 9a3c
00000010: 583c 253d e6bc d73e 1d22 5dbd 0c9d 5e3e
00000020: fd3d 1c3e bab5 83bd 24a6 72bd a1d5 3fbc
00000030: cf4c dbbd 9653 adbe 0750 1ebe 8404 9bbd
00000040: af9b 4d3e 2881 82bd 4a5d a2bc c7a4 45bb
00000050: fd1b c7bd e0dc 5a3e 9c55 b9bc 2476 73be
00000060: 17f2 583c 59c2 b9bc d560 5a3e beca 60bb
00000070: 54d5 37be 509f f63c 7ae8 ec3c bee8 413d
00000080: b369 8e3e 6b6c c23e 239b a83e e211 3bbd
00000090: aa40 173d 5c06 973e fb32 6a3e 903a 6abc
000000a0: b75c ecbc 24ba 473d 3bdc e63d 19c8 973d
000000b0: b800 3fbe ae55 36be 13d0 c53d 3ac4 f1bd
000000c0: 893c 363d 7730 edbd 6786 903d b0d1 ad3b
000000d0: d620 b8bd ebde 503e 9169 e03d af98 dc3d
000000e0: 3540 593c 448e fb3d 4cdd 9ebd c9ac 56be
000000f0: 0664 683d a303 4bbd a037 3d3c 6899 31bd
00000100: d834 2b3d b885 72be db4d 03be e675 b53e
00000110: 659a 19be ec8d cfbd 74a0 173e beca 473e
00000120: 59b7 953d dc34 903d fb01 5d3d 7b27 ecbd
00000130: d07e 3e3d 782d 9a3d 9a1a 633e 0701 26bd
00000140: 8785 bd3d de1e ca3b d116 113e c61e acbd
00000150: 88cc 283e 3c5d 77bd c161 873e 0057 873e
00000160: 86e1 54be e18e a73d 2ccd 89be 498b 6b3e
00000170: 3219 91bc e5ec ec3d ed2f 3f3e 409c e43b
00000180: dead d2bd b0d1 bd3b d71f 28bf 1acb ff3d
00000190: 1450 b53e b29e a73d 4570 41bd 3e85 173e
000001a0: 945e 443e 65c3 20bd c0d6 973d 7cd1 003c
000001b0: a22d 253e ab72 0a3e 0922 953c 41c6 97be
000001c0: ffa4 a93d 5b4e 613e 3bc5 dbbd a6c7 a5bc
000001d0: 4c64 253e d3e5 db3d ac2d 7f3d cd69 4ebe
000001e0: 69c6 42be d3ae cabd 7c53 513e 85a2 08be
000001f0: 37fc f53d b677 993d 22dc 6c3e 2664 e83c
00000200: f8cb 963c ac3f 4dbe f4bb 32bd 24e8 56bb
00000210: 33c2 923e d06f c33d 1d0a dfbb b527 cf3b
00000220: f075 0c3e e288 7c3d 970c bbbd 2292 f8bc
00000230: 30ec b9be 7633 ea3d 9209 413d 503f debc
00000240: a992 22bd 151d 99be e492 a6bd 2229 98bd
00000250: 4301 e4bd b82c f5bb df02 113d c454 7dbd
00000260: 65a8 813c faba a5bc fadc 3c3d 7490 c1bd
00000270: a97f 9b3c 445d babc 713d 6d3c c73b 473e
00000280: 15d7 84bd 600f e9bb 82e5 76be 0eb9 4ebd
00000290: 0e10 8b3d faf9 95bd f63a 113e b395 73bd
000002a0: 1860 bbbd 60be 5fbb dd8b 18be 7253 ba3b
000002b0: 81a3 ff3d e12d 5dbd ae69 70bd 59b8 95bd
000002c0: 65c5 9f3c a2ef ab3d ce92 55bd ebe4 133e
000002d0: be81 1c3e f7da 193d 9c91 02be 980b 9dbd
000002e0: d1eb 1d3d 24e3 363e 4f22 3ebe c199 313e
000002f0: 0a5e ebbd 6611 ab3c 6bd9 16be 875a 103e
00000300: adbd a03d 9e67 273e c695 7c3d 07c3 8abd
00000310: 7e01 7dbd cc99 753f aa4a 643e 2b82 613c
00000320: e03e 5c3d 0eb4 71bd 1cc5 793e d00a 953d
00000330: 65e3 a83d 432e 57be cd1b 143e c819 823e
00000340: ba2e 613e d5f2 3cbd f284 d23d 5b5c 71be
00000350: 5ea0 8a3d 74ce 5b3d be57 393d 3c9c 7ebd
00000360: 07f4 47be aa04 d43d 61dc 03be 8d55 b23b
00000370: 89c5 5e3c d671 96bc 6ffb d2bc d7de 28be
00000380: 0933 c43d d65a 1cbc abc7 c2bd beb8 59bd
00000390: 59d9 813d 8252 7dbd 23b9 12bc 0704 c83d
000003a0: f9d3 e0bb d38b 8a3e c9ae 5ebd 3e47 77bd
000003b0: aad4 7c3d e532 f53d c606 903d 4188 10be
000003c0: 71ce 85bd 4855 97bc ba8a 513e e1aa 01bd
000003d0: 8ffe 43be 2569 323d b333 59be f54d 33be
000003e0: 8223 3d3d f45b 843d 78d8 d0bd f683 4fbe
000003f0: 28ae 3e3c 42cf ccbc 459b 90be 5c9e 693a

fc1.bias f4 [256]
-0.05825532 -0.0021502092 -7.701975e-05 -0.07597164 -0.24704206 -0.24193522 -0.107882015 -0.19393483
-0.14331293 -0.3285479 -0.078988194 -0.114630796 -0.23282655 -0.280567 -0.051858887 -0.30664432
-0.0140091395 -0.26673058 -0.21518494 -0.034805126 -0.1851543 -0.13567753 0.0045308196 -0.12480118
-0.09404524 0.008518 -0.093436286 -0.23480697 0.019983914 -0.014174663 -0.0009559227 -0.07428107
0.05605557 -0.11698935 -0.13361181 -0.32952896 -0.026844526 -0.28933322 -0.075615436 0.09592457
-0.056970503 -0.089624934 -0.28277296 0.08837296 -0.06109605 -0.306949 0.14016752 -0.16565415
-0.12548739 -0.07410763 -0.15777792 0.0006087616 -0.08048906 -0.026499515 -0.09277736 0.030691054
0.030511193 0.06498322 -0.07724693 -0.07161706 -0.27796537 -0.18441647 -0.08878525 -0.08515649
-0.11388548 -0.18605734 -0.01428088 -0.16962957 -0.051908664 0.094029546 -0.14756185 -0.26217917
-0.3146418 0.062758334 -0.29741067 -0.050524693 -0.31990737 -0.23524657 -0.13041008 -0.087360196
0.1694298 -0.23439252 -0.39464256 -0.27698195 0.08958272 -0.08116382 0.09997682 -0.17498311
-0.17533302 -0.088907145 -0.03415467 -0.3299748 -0.27947974 -0.082323276 -0.23865716 -0.1132646
-0.14887512 -0.24543126 -0.24112517 -0.037763685 -0.17689492 -0.25377977 0.01898471 -0.21975131
0.0409434 -0.36088216 -0.1145219 -0.28336936 -0.053930618 0.023338208 -0.055993207 0.057223365
-0.048390977 -0.028765874 0.025669463 -0.13565703 -0.09490086 0.011653869 0.031950656 -0.14415279
-0.22140993 -0.034378074 -0.035535567 -0.13603741 -0.13957828 -0.32786682 -0.08942312 0.07413252
-0.07064886 -0.20838372 -0.061422568 -0.039760217 -0.1831503 -0.20387645 -0.10644659 -0.020919194
-0.12300949 0.09301467 -0.093020946 -0.022138864 0.020221433 -0.23478371 -0.06382453 0.0072500603
-0.037114672 0.08252314 0.12839068 -0.015319949 -0.064002275 -0.34200907 -0.116198525 -0.23754108
0.015748985 -0.17795017 -0.012983281 -0.06286666 -0.24172331 -0.17498213 -0.26972535 0.060967937
-0.21329929 -0.13265993 -0.09874479 -0.13039517 -0.40721542 -0.075688824 -0.2642849 -0.3429761
-0.14479604 -0.16583487 -0.09870753 -0.06177034 0.19625555 0.023032425 -0.036415473 -0.04352178
0.028880684 -0.038609233 -0.45102504 0.02598355 -0.038715012 -0.09382164 -0.14424509 0.057532933
0.038315132 -0.16392674 0.062515914 -0.2716324 -0.04666692 -0.33865303 -0.1477206 -0.18411724
-0.026276514 -0.072534695 0.029790815 0.05348838 -0.28988096 -0.21843855 -0.14185667 -0.23045012
-0.23317 -0.16842204 -0.20068744 -0.23210135 -0.025160098 -0.15289381 -0.17584841 -0.008246738
-0.14700155 -0.24171679 -0.14444758 -0.13621248 -0.009187523 -0.28153977 -0.07953075 0.06382957
-0.071211964 -0.0089576915 0.040467415 -0.13696668 -0.021260409 -0.04306332 -0.053819228 -0.15020975
-0.23931083 -0.030591814 -0.27217215 -0.063312665 -0.14847493 -0.10287869 -0.08613579 0.041958448
-0.20044708 0.021958185 -0.21417926 -0.043932073 -0.16713844 0.029482383 0.04892009 -0.3078473
-0.09920829 0.033057544 -0.30308545 0.037006296 -0.0663772 0.003494962 0.0496115 0.012664817
-0.1508093 -0.06584926 0.09731342 -0.1387094 0.15187387 -0.31606808 -0.30848026 -0.042281955
00000000: 219d 6ebd 86ea 0cbb aa85 a1b8 0597 9bbd
00000010: 98f8 7cbe debd 77be 3ff1 dcbd da96 46be
00000020: a0c0 12be 6e37 a8be 90c4 a1bd 8dc3 eabd
00000030: 156a 6ebe 7aa6 8fbe fc69 54bd 7c00 9dbe
00000040: 9786 65bc e990 88be 7159 5cbe d28f 0ebd
00000050: 1799 3dbe 0def 0abe 4577 943b c397 ffbd
00000060: ca9a c0bd 158f 0b3c 865b bfbd 3d71 70be
00000070: 4eb5 a33c d93c 68bc e396 7aba ac20 98bd
00000080: 869a 653d 1d98 efbd 89d1 08be 05b8 a8be
00000090: 0de9 dbbc 7c23 94be 44dc 9abd 1a74 c43d
000000a0: e759 69bd 478d b7bd 9ec7 90be e2fc b43d
000000b0: da3f 7abd 6b28 9dbe 1388 0f3e 3ea1 29be
000000c0: c47f 00be bec5 97bd 8990 21be 4d95 1f3a
000000d0: 73d7 a4bd 8315 d9bc 0e02 bebd ce6b fb3c
000000e0: 9cf2 f93c ec15 853d a333 9ebd f7ab 92bd
000000f0: 7a51 8ebe acd7 3cbe 0bd5 b5bd 8766 aebd
00000100: ca3c e9bd d185 3ebe 5afa 69bc 60b3 2dbe
00000110: 2e9e 54bd 9092 c03d 741a 17be 593c 86be
00000120: bb18 a1be 7187 803d 3646 98be fbf2 4ebd
00000130: e6ca a3be 7ae4 70be 388a 05be e7e9 b2bd
00000140: 017f 2d3e 9804 70be 970e cabe 94d0 8dbe
00000150: 2577 b73d 3839 a6bd a6c0 cc3d c62e 33be
00000160: 808a 33be f314 b6bd c4e5 0bbd 75f2 a8be
00000170: f817 8fbe 1b99 a8bd 8b62 74be 45f7 e7bd
00000180: b872 18be 5552 7bbe 84e9 76be 18ae 1abd
00000190: f123 35be 6cef 81be d385 9b3c 7d06 61be
000001a0: 44b4 273d 8cc5 b8be 758a eabd ca15 91be
000001b0: 5ae6 5cbd c52f bf3c 2259 65bd 0c63 6a3d
000001c0: 9e35 46bd 69a6 ebbc c448 d23c ade9 0abe
000001d0: 625b c2bd dfef 3e3c b1de 023d ca9c 13be
000001e0: 49b9 62be 06d0 0cbd be8d 11bd 644d 0bbe
000001f0: 9ced 0ebe 29de a7be 7823 b7bd cad2 973d
00000200: 59b0 90bd 8b62 55be 3b96 7bbd 9cdb 22bd
00000210: c18b 3bbe fdc4 50be ab00 dabd bb5e abbc
00000220: 66ec fbbd 7a7e be3d c481 bebd 905c b5bc
00000230: 6ba7 a53c 246b 70be 6fb6 82bd ea91 ed3b
00000240: 8e05 18bd e401 a93d d978 033e 8600 7bbc
00000250: a013 83bd d01b afbe 7ef9 edbd f83d 73be
00000260: 0404 813c 9238 36be d4b7 54bc 3cc0 80bd
00000270: 5186 77be 842e 33be 7119 8abe 84b9 793d
00000280: 216b 5abe 01d8 07be b53a cabd 5086 05be
00000290: 8a7e d0be be02 9bbd 5a50 87be 909a afbe
000002a0: 6a45 14be 9ed0 29be 2c27 cabd e502 7dbd
000002b0: 37f7 483e 7fae bc3c 6428 15bd e543 32bd
000002c0: 2f97 ec3c b724 1ebd c1ec e6be 74db d43c
000002d0: a293 1ebd 8f25 c0bd fcb4 13be a7a7 6b3d
000002e0: 54f0 1c3d 69dc 27be 5808 803d 6713 8bbe
000002f0: d025 3fbd ee63 adbe 1244 17be 3b89 3cbe
00000300: d841 d7bc 128d 94bd de0b f43c a216 5b3d
00000310: 476b 94be 5bae 5fbe e042 11be 1efb 6bbe
00000320: 1ec4 6ebe d476 2cbe 0281 4dbe faab 6dbe
00000330: 8d1c cebc 3290 1cbe 9b11 34be 541d 07bc
00000340: 9387 16be 9b84 77be 11ea 13be 497b 0bbe
00000350: 4487 16bc fb25 90be 05e1 a2bd 14b9 823d
00000360: 94d7 91bd 48c3 12bc 29c1 253d fe40 0cbe
00000370: 4f2a aebc 2a63 30bd 8d71 5cbd 96d0 19be
00000380: e60d 75be af9b fabc 265a 8bbe 12aa 81bd
00000390: d009 18be 10b2 d2bd f667 b0bd 9fdc 2b3d
000003a0: 0042 4dbe a7e1 b33c cf51 5bbe 1ef2 33bd
000003b0: 5726 2bbe 0a85 f13c 6f60 483d 299e 9dbe
000003c0: b72d cbbd 5967 073d 042e 9bbe ea93 173d
000003d0: c5f0 87bd bb0b 653b 6e35 4b3d 1880 4f3c
000003e0: c16d 1abe fadb 86bd 424c c73d d609 0ebe
000003f0: d384 1b3e add3 a1be 20f1 9dbe d82f 2dbd

fc2.weight f4 [128, 256]
-0.15864533 -0.17404741 0.0544656 -0.041474167 -0.22782277 0.068784006 -0.18672921 -0.3465372
-0.36152044 0.1102384 0.058389787 -0.1673057 -0.10404464 0.14326656 -0.03672301 0.078695446
0.035739493 0.08845264 -0.30648747 0.12903364 0.64975196 0.16036318 -0.40364036 0.33866155
-0.29050338 0.06421129 0.20933285 0.015684642 -0.48132825 0.02626365 -0.11398707 0.15254398
0.08928913 0.054192685 -0.014453014 0.26028246 -0.050631307 -0.081975386 0.07738004 -0.18820994
-0.00872784 -0.55527365 0.14663267 -0.26114857 -0.040024236 0.053487957 0.42451176 -0.011715425
-0.036225855 0.07991804 -0.1591304 -0.004484227 -0.04753167 -0.08174776 0.07078594 -0.07146758
-0.11387168 0.13877393 0.15002307 0.14978689 0.06584864 0.047571845 0.051867504 0.17423834
-0.034406245 -0.19401088 -0.2541422 0.060443655 0.12819868 0.03581933 0.10930388 0.10880775
0.1247682 -0.0776711 0.15571007 -0.08283797 0.15370709 0.04405375 -0.23245543 0.013183782
-0.2737857 -0.18943247 -0.56887555 0.051158432 0.12631918 -0.041805793 -0.17679995 0.11845749
-0.16813254 -0.197684 0.0064201197 -0.039213266 0.07281545 -0.12637508 0.20525278 0.13503449
0.0066234465 -0.044395138 0.020877287 0.043907452 -0.052163377 0.2758458 0.11644489 0.23901777
0.07022846 -0.17877188 -0.25702694 0.26722696 -0.1445667 0.042462043 -0.08713129 -0.042790942
0.27912787 0.18530583 0.11972857 -0.12290134 -0.13691351 0.14288151 0.23157686 0.039868124
-0.2531104 -0.25680175 0.26472947 -0.23903987 -0.00029929902 0.16094707 -0.46264252 -0.07583803
0.06967586 -0.22346188 -0.018313544 0.06491157 0.054526206 -0.03449773 -0.37686905 -0.21445663
-0.12830986 -0.32847092 -0.10133212 0.08962354 -0.111992255 -0.5165298 0.027162606 0.1771046
-0.43014002 0.10800667 0.056257892 0.047523636 0.25407878 -0.020773944 -0.10594414 0.12558405
0.13551942 -0.03485546 -0.029397089 0.04375269 -0.022264844 0.09528366 -0.31860954 -0.009407923
-0.1359622 -0.07794199 -0.18093994 -0.4068688 -0.2044751 0.027000478 0.02769794 -0.00048173647
-0.31798103 0.066616364 0.054731406 -0.010822358 -0.12230467 -0.25499183 -0.36805165 -0.05713384
0.037570707 -0.27964965 -0.09823874 -0.07785735 -0.006572703 -0.18378179 -0.2792374 -0.14864172
0.026721004 0.07136439 -0.40102062 -0.20830837 -0.0054309564 -0.24570598 -0.07897144 0.0132998135
0.45085847 -0.11801768 0.21349151 -0.09756104 0.52408785 0.2033081 -0.15940155 -0.06060733
-0.14614268 0.03738054 -0.119378604 -0.13998848 0.12292614 -0.51526487 0.1238328 0.12526892
-0.02419379 -0.09493858 0.16334161 0.067857504 -0.07557612 -0.51892674 -0.08694562 0.21475548
0.037083857 -0.036376305 -0.0240467 -0.12569705 0.014080867 -0.028847646 0.08374784 0.077126406
0.084896274 -0.00015283318 -0.28885475 -0.18437973 0.13916302 0.10560932 -0.16436167 -0.3272247
-0.04053055 0.09120106 0.06431769 -0.12202596 0.19723533 -0.11728205 -0.035097204 -0.066333055
0.1842172 0.07972386 0.019385884 0.34729436 0.039461114 0.08184308 0.097973466 0.10532525
0.01779155 -0.037080973 0.30790222 0.313911 0.17378233 -0.27129143 0.04696189 0.13877179
00000000: ec73 22be 7c39 32be 5217 5f3d d1e0 29bd
00000010: 5f4a 69be a1de 8c3d f135 3fbe 536d b1be
00000020: 3519 b9be acc4 e13d 212a 6f3d 2f52 2bbe
00000030: 5b15 d5bd 78b4 123e de6a 16bd 142b a13d
00000040: 9363 123d a826 b53d edeb 9cbe 6521 043e
00000050: 2556 263f 3f36 243e f3a9 cebe 0c65 ad3e
00000060: dcbc 94be 3581 833d 5a5b 563e 147d 803c
00000070: a870 f6be de26 d73c 0e72 e9bd 7d34 1c3e
00000080: 38dd b63d 26f9 5d3d 56cc 6cbc be43 853e
00000090: c662 4fbd b6e2 a7bd 6d79 9e3d 1bba 40be
000000a0: 37ff 0ebc 6a26 0ebf e026 163e 44b5 85be
000000b0: 74f0 23bd 3016 5b3d 9b59 d93e 0ef2 3fbc
000000c0: 9061 14bd 12ac a33d 14f3 22be 6cf0 92bb
000000d0: 92b0 42bd 5f6b a7bd 38f8 903d 985d 92bd
000000e0: 8e35 e9bd c11a 0e3e a69f 193e bc61 193e
000000f0: a7db 863d b2da 423d 0573 543d 896b 323e
00000100: 90ed 0cbd caaa 46be ed1e 82be c493 773d
00000110: 8446 033e 4ab7 123d b6da df3d 99d6 de3d
00000120: 7886 ff3d 0712 9fbd 7672 1f3e f4a6 a9bd
00000130: 6465 1d3e b471 343d cc08 6ebe ca00 583c
00000140: a42d 8cbe 96fa 41be d4a1 11bf 818b 513d
00000150: d159 013e 8d3c 2bbd 0c0b 35be d799 f23d
00000160: f02a 2cbe ad6d 4abe de5f d23b 179e 20bd
00000170: 4420 953d 7868 01be c92d 523e 7b46 0a3e
00000180: 7f09 d93b add7 35bd d806 ab3c 4dd8 333d
00000190: 44a9 55bd a93b 8d3e a97a ee3d 13c1 743e
000001a0: f0d3 8f3d fa0f 37be 0999 83be f9d1 883e
000001b0: 4b09 14be aeec 2d3d e471 b2bd 8e45 2fbd
000001c0: d9e9 8e3e d0c0 3d3e 4134 f53d b3b3 fbbd
000001d0: 0e33 0cbe 884f 123e 7c22 6d3e c24c 233d
000001e0: b097 81be 857b 83be 9f8a 873e dec6 74be
000001f0: 3ceb 9cb9 4fcf 243e 7bdf ecbe f850 9bbd
00000200: 38b2 8e3d 31d3 64be 4906 96bc 5bf0 843d
00000210: df56 5f3d 7e4d 0dbd fbf4 c0be 859a 5bbe
00000220: a963 03be 572d a8be 3787 cfbd 8c8c b73d
00000230: 325c e5bd 4c3b 04bf 1d84 de3c e95a 353e
00000240: 503b dcbe 9a32 dd3d ad6e 663d 25a8 423d
00000250: 9d16 823e 1e2e aabc 3ef9 d8bd 1b99 003e
00000260: 9ac5 0a3e 99c4 0ebd 2ad2 f0bc 0536 333d
00000270: c364 b6bc 1424 c33d ca20 a3be b023 1abc
00000280: ad39 0bbe 0da0 9fbd 5248 39be 1b51 d0be
00000290: ec61 51be 1b30 dd3c cae6 e23c 9391 fcb9
000002a0: 69ce a2be 296e 883d 0a2e 603d 4250 31bc
000002b0: df7a fabd 4a8e 82be 4471 bcbe 2c05 6abd
000002c0: bee3 193d 3d2e 8fbe 6431 c9bd ad73 9fbd
000002d0: d45f d7bb 4b31 3cbe 34f8 8ebe 8935 18be
000002e0: 02e6 da3c 7e27 923d 9352 cdbe ca4e 55be
000002f0: 2af6 b1bb 599a 7bbe c7bb a1bd 76e7 593c
00000300: ecd6 e63e 41b3 f1bd 859d 5a3e 15ce c7bd
00000310: 9f2a 063f 0030 503e 293a 23be 643f 78bd
00000320: 6da6 15be 561c 193d c57c f4bd 2459 0fbe
00000330: b3c0 fb3d 66e8 03bf 0d9c fd3d 7f46 003e
00000340: 0e32 c6bc 296f c2bd 0643 273e e0f8 8a3d
00000350: a7c7 9abd 62d8 04bf 8c10 b2bd dce8 5b3e
00000360: 3ee5 173d 52ff 14bd 96fd c4bc bab6 00be
00000370: 70b3 663c e651 ecbc fd83 ab3d 73f4 9d3d
00000380: 19de ad3d d841 20b9 c5e4 93be 0ace 3cbe
00000390: c080 0e3e b349 d83d 6d4e 28be ff89 a7be
000003a0: 5d03 26bd 9fc7 ba3d feb8 833d bfe8 f9bd
000003b0: 0ff8 493e 9231 f0bd 16c2 0fbd a0d9 87bd
000003c0: 6fa3 3c3e 4346 a33d 25cf 9e3c 91d0 b13e
000003d0: faa1 213d 589d a73d 50a6 c83d c4b4 d73d
000003e0: 96bf 913c 38e2 17bd 5ca5 9d3e f1b8 a03e
000003f0: fff3 313e b6e6 8abe 1c5b 403d 311a 0e3e

fc2.bias f4 [128]
-0.0033469782 -0.039641842 -0.027087525 -0.017733842 -0.02864872 -0.17323364 -0.004277198 0.08137058
0.0075690825 0.059224997 -0.14436142 0.11322631 0.014184002 -0.11069866 0.10174878 -0.01207264
0.053566877 -0.13095163 -0.05414406 -0.09449929 0.03591204 -0.092728496 -0.060296442 -0.17898202
-0.04698632 0.021930264 -0.056015994 -0.23457414 -0.13928166 -0.023730844 -0.0761339 0.06265538
0.13261159 -0.08061262 -0.09472203 0.0057981294 0.04363965 -0.089966826 0.016236797 0.028355459
-0.04562539 -0.05242612 -0.034639303 -0.06381803 -0.17013125 -0.0069105113 -0.08608056 -0.120914154
-0.05888776 -0.019608274 -0.10888227 -0.11735396 -0.015174306 -0.002398937 -0.11863237 0.02634603
-0.10575957 -0.051492143 -0.051744472 -0.07592989 -0.03660807 -0.18660389 -0.06700721 -0.038985766
-0.08302643 0.040280774 -0.07170349 -0.12650569 -0.07858741 -0.093731225 0.03751488 0.097455226
-0.016841175 0.042001296 -0.12464869 -0.010433296 0.09168398 -0.0735119 -0.12591739 -0.093135394
-0.049133167 -0.12626973 -0.00928538 -0.06562694 -0.077912726 -0.042005304 -0.05164947 -0.051654853
0.029132131 -0.16120932 0.06560031 0.019166855 -0.08609332 -0.105358824 -0.019027257 -0.16162005
-0.05460342 0.03152042 -0.13030481 0.06767083 -0.11838943 -0.094974756 0.044167567 0.014997892
-0.24126744 -0.019210327 -0.16000171 -0.14912273 0.0054177092 0.029660203 -0.068816975 0.012113047
0.011047621 0.123112775 -0.002366866 -0.024641072 -0.06564244 -0.11406771 0.0023155366 -0.09595099
-0.15228932 -0.021527003 -0.13393265 -0.033551015 -0.08570741 -0.044295922 -0.11093664 -0.023451542
00000000: fa58 5bbb 7c5f 22bd a8e6 ddbc 9046 91bc
00000010: b8b0 eabc 2964 31be bd27 8cbb 9ea5 a63d
00000020: 1106 f83b e995 723d 7bd3 13be 32e3 e73d
00000030: 0464 683c fbb5 e2bd aa61 d03d 52cc 45bc
00000040: f168 5b3d 2f18 06be 29c6 5dbd d888 c1bd
00000050: 8118 133d 70e8 bdbd 67f9 76bd 1047 37be
00000060: ba74 40bd 19a7 b33c 0771 65bd 3434 70be
00000070: da9f 0ebe 3067 c2bc 17ec 9bbd 7751 803d
00000080: 55cb 073e 3b18 a5bd a0fd c1bd 3cfe bd3b
00000090: 7dbf 323d 8740 b8bd 0803 853c b549 e83c
000000a0: b0e1 3abd c5bc 56bd f1e1 0dbd 07b3 82bd
000000b0: e336 2ebe 9271 e2bb 014b b0bd d7a1 f7bd
000000c0: 4b34 71bd 88a1 a0bc abfd debd 4657 f0bd
000000d0: a79d 78bc 7c37 1dbb 87f5 f2bd a1d3 d73c
000000e0: 7998 d8bd 6de9 52bd 03f2 53bd 2181 9bbd
000000f0: 58f2 15bd 1715 3fbe 133b 89bd 8aaf 1fbd
00000100: c309 aabd 74fd 243d 48d9 92bd b58a 01be
00000110: 70f2 a0bd 28f6 bfbd 34a9 193d 9b96 c73d
00000120: 81f6 89bc 8d09 2c3d d047 ffbd 6af0 2abc
00000130: cfc4 bb3d 688d 96bd 7df0 00be c5bd bebd
00000140: dc3f 49bd da4c 01be b521 18bc 6b67 86bd
00000150: b590 9fbd c10d 2cbd 658e 53bd 0a94 53bd
00000160: 82a6 ee3c 0e14 25be 7559 863d cf03 9d3c
00000170: b251 b0bd 5ec6 d7bd 0ddf 9bbc ba7f 25be
00000180: d6a7 5fbd 8e1b 013d a06e 05be 0197 8a3d
00000190: 2876 f2bd 2082 c2bd 0de9 343d b8b9 753c
000001a0: d00e 77be fa5e 9dbc 7dd7 23be a1b3 18be
000001b0: 0a87 b13b f4f9 f23c eaef 8cbd cd75 463c
000001c0: 1501 353c 8d22 fc3d 6c1d 1bbb 13dc c9bc
000001d0: 8b6f 86bd 559c e9bd 42c0 173b f481 c4bd
000001e0: bbf1 1bbe 6659 b0bc a425 09be ca6c 09bd
000001f0: 5e87 afbd a46f 35bd c032 e3bd 731d c0bc

fc3.weight f4 [4, 128]
0.27892664 -0.5540007 -0.08110737 0.16754472 -0.113649875 1.223499 0.21313512 -0.010087142
-0.30681884 -0.6176188 -0.21384719 -0.23796748 1.2744262 -0.36762297 -0.28659993 -0.21385449
0.30861294 0.54788905 0.45843908 -0.7805962 -0.24568425 0.9863804 0.24598327 -0.2947941
-0.243491 -0.013845052 0.7346161 -0.19304861 -0.933106 -0.2715438 0.45450264 0.47801968
-0.10114109 -0.4151861 -0.091651335 -0.28795847 0.58557135 1.002068 0.116997786 0.06283896
-0.40338752 -0.082460895 0.043879643 0.18403257 0.09352744 -0.013968794 -0.5573086 -0.5412563
-0.4656804 0.8039192 -0.26375788 0.340195 -0.3863627 0.7427983 -0.28777796 0.5604091
0.51115334 0.78389156 -0.6569061 0.535371 0.36523584 0.117670745 0.046525262 -0.20585546
-1.4219282 -0.30919808 0.30104426 0.61273336 -0.55556494 0.37669864 -0.1307406 0.26945424
0.5317932 -0.28605297 -0.9758987 -0.08318938 -0.1311641 0.967691 0.045015052 0.9182696
-0.10729619 -0.58289593 0.51304066 0.009216263 0.38176832 -1.2691536 -0.09794755 0.76864386
-0.13952054 0.33592147 0.31189874 0.023940638 -0.11652599 -0.093644865 -0.26102757 -0.53765833
-0.29896414 0.04550847 -0.39840195 -0.026680771 -0.5750681 0.51686037 -0.11915021 -0.16906215
-0.38552073 -0.37295336 1.0041621 -0.10981097 -0.36764604 0.88212454 -0.15752205 -0.05579927
-0.79070336 0.67534864 0.041246302 0.6009112 -0.39264706 0.31821254 -0.2983062 0.55706733
-0.3854283 -0.15731591 0.3625527 1.3052338 1.01943 0.27692586 0.6395766 -0.33500937
0.063341826 -0.64473826 0.011370516 -0.34444582 0.22732665 0.043912865 0.030431315 -0.1711795
-0.29719174 -0.23076172 -0.51834047 0.2762543 0.084979154 -0.42626038 0.023699647 -0.83266556
-0.03920781 0.22846887 0.343862 -0.22231464 -0.090702355 -0.4358331 -0.44432268 -0.35592496
-0.3224993 0.3174525 -0.5166816 -0.1087279 -0.038353685 0.1284854 -0.5075404 0.11581678
-0.16114298 0.10909036 -0.108047694 0.6009904 -0.031300507 -0.17947522 0.38173208 0.3146751
-0.18376759 -0.5443949 0.5597544 0.027895346 0.9410225 0.0829591 -0.18134238 -1.1132333
0.06535511 -0.27183622 -0.2970024 0.060188998 0.2786464 0.62171346 -0.40532243 0.73404855
-0.7762235 0.29133022 -0.42332605 -0.7790979 0.63798404 -0.94606286 -0.49205858 -0.34515303
0.65069926 0.13982826 -0.03381559 0.1597413 0.043274842 -0.6060785 0.3357495 0.6784039
-0.12801968 0.19471933 -0.099572204 -0.16813716 0.10523554 -0.100263484 0.113651484 0.12048807
0.09025758 -0.065139905 0.030177025 0.71208155 -0.17169984 0.23006348 -0.8115499 0.5915399
0.6642259 -1.0493158 0.30836478 -0.9953988 -0.075326174 -0.36745003 0.90794665 -0.11040051
-0.6570858 -0.17793736 0.1627049 0.54269814 -0.24282068 0.32730278 -0.2604392 0.31849784
-0.087538235 0.06787392 0.05742844 -0.33850276 0.070845954 0.1963882 -0.5163603 -0.42027482
0.31638753 0.40500888 0.22822198 0.055181008 -0.31006312 -0.051712926 0.24918692 -0.14119048
-0.3074842 -0.5336443 -0.23122151 -0.25959778 0.5556669 0.25636452 0.16248573 0.07053659
00000000: 79cf 8e3e fdd2 0dbf 9f1b a6bd d890 2b3e
00000010: 44c1 e8bd 9d9b 9c3f 1840 5a3e 8a44 25bc
00000020: 5c17 9dbe 441c 1ebf c2fa 5abe bfad 73be
00000030: 6620 a33f 1439 bcbe 3abd 92be acfc 5abe
00000040: 8402 9e3e 7542 0c3f 87b8 ea3e 27d5 47bf
00000050: a794 7bbe 6d83 7c3f 0ae3 7b3e 41ef 96be
00000060: b455 79be 5bd6 62bc cd0f 3c3f 89ae 45be
00000070: 09e0 6ebf ca07 8bbe 92b4 e83e ffbe f43e
00000080: 0f23 cfbd 4693 d4be b2b3 bbbd 4b6f 93be
00000090: 01e8 153f c443 803f 899c ef3d b6b1 803d
000000a0: cf88 cebe 42e1 a8bd 24bb 333d 0973 3c3e
000000b0: 518b bf3d 5edd 64bc c7ab 0ebf c68f 0abf
000000c0: a96d eebe a6cd 4d3f 460b 87be 0a2e ae3e
000000d0: 55d1 c5be 0828 3e3f a257 93be f976 0f3f
000000e0: f2da 023f 1ead 483f 002b 28bf 130e 093f
000000f0: 3100 bb3e 5cfd f03d 4691 3e3d c6cb 52be
00000100: be01 b6bf 364f 9ebe 7922 9a3e 18dc 1c3f
00000110: 8139 0ebf a5de c03e dde0 05be e8f5 893e
00000120: 9923 083f 8975 92be 7fd4 79bf 325f aabd
00000130: e24f 06be 99ba 773f b461 383d b713 6b3f
00000140: 1bbe dbbd ab38 15bf a256 033f cfff 163c
00000150: 2377 c33e a073 a2bf ba98 c8bd d8c5 443f
00000160: 79de 0ebe e6fd ab3e 31b1 9f3e 281f c43c
00000170: 2ea5 eebd e1c8 bfbd 68a5 85be faa3 09bf
00000180: d411 99be 1767 3a3d 57fb cbbe a291 dabc
00000190: aa37 13bf f650 043f 0605 f4bd a11e 2dbe
000001a0: f962 c5be bef3 bebe 6288 803f 93e4 e0bd
000001b0: 1a3c bcbe ead2 613f 764d 21be c68d 64bd
000001c0: 896b 4abf a6e3 2c3f e2f1 283d 51d5 193f
000001d0: 0909 c9be c1ec a23e 97bb 98be f79b 0e3f
000001e0: dc56 c5be 6c17 21be 82a0 b93e e711 a73f
000001f0: af7c 823f 3ac9 8d3e 4bbb 233f 5986 abbe
00000200: 5cb9 813d 910d 25bf 674b 3a3c 345b b0be
00000210: 51c8 683e fadd 333d 184b f93c ae49 2fbe
00000220: 8429 98be cd4c 6cbe f6b1 04bf 3471 8d3e
00000230: 8d09 ae3d cd3e dabe c325 c23c 9229 55bf
00000240: 5e98 20bd bef3 693e ae0e b03e 73a6 63be
00000250: 28c2 b9bd 8425 dfbe 437e e3be cc3b b6be
00000260: a11e a5be 2289 a23e 3f45 04bf bcac debd
00000270: c118 1dbd ad91 033e 2bee 01bf 5931 ed3d
00000280: aa02 25be c46a df3d 1c48 ddbd 82da 193f
00000290: f634 00bd 5ac8 37be 6372 c33e 181d a13e
000002a0: 922d 3cbe 775d 0bbf 104c 0f3f c884 e43c
000002b0: dae6 703f 76e6 a93d d1b1 39be 6e7e 8ebf
000002c0: e6d8 853d 1e2e 8bbe b310 98be bd88 763d
000002d0: beaa 8e3e 9d28 1f3f 6c86 cfbe 9bea 3b3f
000002e0: 95b6 46bf 3c29 953e 31be d8be f672 47bf
000002f0: ec52 233f 2d31 72bf 1aef fbbe e6b7 b0be
00000300: 3a94 263f 242f 0f3e 3782 0abd 3993 233e
00000310: f640 313d f627 1bbf 5ce7 ab3e e1ab 2d3f
00000320: 9717 03be 8164 473e 83ec cbbd 262c 2cbe
00000330: bb85 d73d f156 cdbd 1cc2 e83d 73c2 f63d
00000340: f7d8 b83d 1268 85bd cf35 f73c fa4a 363f
00000350: 15d2 2fbe c395 6b3e bcc1 4fbf 296f 173f
00000360: b50a 2a3f fb4f 86bf fde1 9d3e 75d2 7ebf
00000370: 9c44 9abd 6922 bcbe 316f 683f aa19 e2bd
00000380: c636 28bf 3635 36be 1d9c 263e 44ee 0a3f
00000390: fca5 78be 3b94 a73e 4958 85be 2612 a33e
000003a0: 3f47 b3bd 7b01 8b3d 153a 6b3d 3c50 adbe
000003b0: af17 913d fd19 493e 3030 04bf 432e d7be
000003c0: 8cfd a13e 535d cf3e 06b3 693e 7b05 623d
000003d0: 98c0 9ebe efd0 53bd db2a 7f3e 3d94 10be
000003e0: 926e 9dbe ea9c 08bf 55c5 6cbe 00ea 84be
000003f0: 3040 0e3f 3642 833e a962 263e 7d75 903d

fc3.bias f4 [4]
-0.099889934 -0.017073046 0.0278529 -0.06942249
00000000: 1893 ccbd c6dc 8bbc c42b e43c 612d 8ebd
