checkpoint_critic.pth (torch_old, 169978 bytes, 5 tensors)

fcs1.weight f4 [256, 33]
0	0x3d218bfe	0.039440148
1	0x3e3ab74d	0.18233986
2	0x3d68e505	0.056859035
3	0xbdf9bc28	-0.12194091
4	0x3dcc86b9	0.09986634
5	0x3d834750	0.06410086
6	0xbb59976b	-0.0033201824
7	0xbd6cdcd7	-0.057827797
8	0x3e3310b8	0.17486846
9	0x3b05f34e	0.002043921
10	0x3caadf0d	0.020858312
11	0x3d871890	0.06596482
12	0x3c4f50d4	0.012653548
13	0x3d0b84b3	0.0340621
14	0x3d9a2a2c	0.07527575
15	0xbdd815b3	-0.10551014
16	0xbbc906dd	-0.0061348514
17	0xbb4f99aa	-0.0031677284
18	0x3d50da30	0.05098933
19	0xbd58dfc5	-0.05294778
20	0xbc2d8261	-0.010590167
21	0x3decabde	0.115562186
22	0xbd0cdd2e	-0.03439062
23	0xbde1b6e3	-0.11021211
24	0x3c8ea591	0.017412933
25	0xbd645abe	-0.0557506
26	0xbb600c09	-0.003418686
27	0x3e6da6b8	0.2320813
28	0x3daa115c	0.08304092
29	0xbd57d348	-0.052691728
30	0xbe21df2e	-0.15807793
31	0x3d420194	0.047364786
32	0x3e6e2f9f	0.23260354
33	0xbd72e120	-0.059296727
34	0x3db9e175	0.09076206
35	0x3d6ab311	0.057299677
36	0xbe7079dc	-0.23483986
37	0xbd2427f4	-0.040077165
38	0xbdef5e98	-0.11687964
39	0xbdc20908	-0.09474379
40	0x3c5067ee	0.012720091
41	0x3d43eb7f	0.04783201
42	0xbe24c157	-0.16089378
43	0xbd26a40b	-0.040683787
44	0x3c0ec652	0.008714275
45	0xbdf33c57	-0.11876743
46	0x3d8b5b87	0.06804567
47	0xbd39fca1	-0.04540694
48	0x3c2529ec	0.010080796
49	0x3d676e2a	0.056501545
50	0xbcc2e540	-0.023790956
51	0x3dac3b50	0.084097505
52	0xbe0a25ff	-0.13491057
53	0xbd8583d4	-0.06519285
54	0xbcd2f2bc	-0.02575051
55	0xbd40fdee	-0.047117166
56	0x3d6e1343	0.05812384
57	0x3cc986a5	0.024600336
58	0xbd85b66b	-0.06528934
59	0xbc0a5987	-0.008444197
60	0x3e617211	0.22016169
61	0x3c860e3c	0.01636421
62	0xbd2030a2	-0.03910888
63	0xbe4e375e	-0.20138308
64	0x3d62f9a6	0.055413865
65	0xbe1ba694	-0.15200263
66	0xbe15deae	-0.14635727
67	0x3e01367d	0.12618442
68	0xbd5fac78	-0.05460784
69	0xbe710a08	-0.23538983
70	0x3e1244e0	0.14284086
71	0xbe5d944e	-0.21638605
72	0xbe523880	-0.20529366
73	0xbc320c9d	-0.010867265
74	0xbe062835	-0.13101275
75	0x3dca1221	0.09866739
76	0xbca41bab	-0.020032724
77	0xbcf82c96	-0.030294698
78	0x3dce0513	0.100595616
79	0x3cf0b7b5	0.029384473
80	0x3dafaaa0	0.08577466
81	0xb9f0809c	-0.0004587219
82	0x3dcc1049	0.09964044
83	0x3d72c053	0.059265446
84	0xbe108013	-0.14111356
85	0xbd216e1f	-0.03941166
86	0x3db5b1ca	0.08871801
87	0xbde76d98	-0.113002
88	0xbdba06b8	-0.09083313
89	0x3e0d0779	0.13772382
90	0x3d9db6b6	0.07700865
91	0xbcd7edcb	-0.026358506
92	0xba17f975	-0.0005797365
93	0x3e51918c	0.20465678
94	0x3d18cc74	0.037304357
95	0x3ce4a304	0.027909763
96	0xbe8c7f5d	-0.2744092
97	0xbd641ade	-0.055689685
98	0xbe4b58b3	-0.19858055
99	0x3e4fac08	0.20280468
100	0x3e23827b	0.15967743
101	0xbe1c4866	-0.15261993
102	0xbd85b5be	-0.06528805
103	0x3e03d9e0	0.12876081
104	0xbe142df2	-0.14470652
105	0x3c684ed3	0.014178949
106	0x3c5091d8	0.012730084
107	0xbe378f45	-0.17925747
108	0xbc801850	-0.015636593
109	0x3d3586e7	0.044318106
110	0xbc7fc7b8	-0.0156115815
111	0xbdf58132	-0.11987533
112	0xbd113d4d	-0.03545885
113	0x3d89d863	0.067307256
114	0xbcc72767	-0.02431078
115	0x3a62c586	0.0008650649
116	0x3d8ab464	0.06772688
117	0xbdb83de5	-0.089961804
118	0xbe138ed7	-0.14409958
119	0x3d083a2a	0.033258595
120	0x3d834c1a	0.064109996
121	0xbe344f33	-0.17608337
122	0xbd47a10f	-0.04873758
123	0x3cb01a17	0.021496816
124	0xbd262ec3	-0.04057194
125	0xbd1e5c3d	-0.038662184
126	0x3d6cb94d	0.057793904
127	0xbc6c9604	-0.014440063
128	0xbcdf4e88	-0.027259126
129	0xbe11a4a0	-0.14222956
130	0xbd7883ec	-0.060672686
131	0x3ea0a809	0.313782
132	0xbdc597e5	-0.09648112
133	0x3d3ff0dc	0.04686056
134	0xbdd6ff9d	-0.10497973
135	0xbc976a78	-0.018483385
136	0xbd537421	-0.05162442
137	0xbbf5f2fe	-0.0075057736
138	0x3dd383e0	0.103278875
139	0xbc770f79	-0.015079373
140	0x3cb25cae	0.021772709
141	0x3c963de3	0.018340057
142	0xbc4ba1bb	-0.012428696
143	0x3db510bb	0.08841082
144	0x3c0e0036	0.0086670425
145	0xbc651d45	-0.013984029
146	0x3ec5356a	0.38517314
147	0xbe45423e	-0.1926355
148	0x3e2b9a47	0.16758071
149	0xbe5ccc3a	-0.21562281
150	0xbdbb4a59	-0.0914504
151	0x3c0e0075	0.008667101
152	0xbb336bc5	-0.0027377468
153	0xbd28417c	-0.041078076
154	0xbd791161	-0.06080759
155	0xbd57e050	-0.052704155
156	0x3d6365a6	0.05551686
157	0xbc9a44f2	-0.018831704
158	0x3de95c61	0.11394573
159	0x3dff2c69	0.124596424
160	0x3dc2c7cb	0.09510764
161	0xbd5d912c	-0.054093525
162	0xbdfc676c	-0.12324414
163	0x3d6cb1ca	0.05778674
164	0xbe8fefc6	-0.2811262
165	0x3d0ee762	0.034888633
166	0x3d44d2ff	0.048052784
167	0x3d46d707	0.04854491
168	0x3b6e73ca	0.0036384934
169	0xbc3bfd7a	-0.011474008
170	0xbc9be583	-0.019030338
171	0xbd10e015	-0.03536995
172	0x3ccbedb2	0.024893615
173	0x3dbc8a57	0.09206074
174	0x3d1b5761	0.037925128
175	0x3c8f29a6	0.017475914
176	0xbc0d447b	-0.008622284
177	0xbd382176	-0.044953786
178	0x3c0640f2	0.008194195
179	0xbd5fa1ce	-0.05459767
180	0xbdb2a2b6	-0.08722441
181	0xbc216b37	-0.009852222
182	0xba2d4cd5	-0.0006610875
183	0x3c9f737c	0.019464247
184	0x3c3c9248	0.011509486
185	0xbbebb5d0	-0.0071933046
186	0x3ceef266	0.029168319
187	0x3bb66caa	0.005567153
188	0x3ce76c8f	0.028250007
189	0x3bfd9d2a	0.0077396827
190	0xbd239de4	-0.039945498
191	0x3d490940	0.049081087
192	0x3e6ff813	0.23434477
193	0x3c827502	0.015924934
194	0x3d0788ba	0.033089377
195	0xbe384a5d	-0.17997117
196	0x3d38b5c6	0.045095228
197	0xbf419d27	-0.7563042
198	0xbc13f34c	-0.009030174
199	0xbdc1924f	-0.09451734
200	0xbe32900f	-0.17437766
201	0xbd99174b	-0.07475146
202	0x3ddcd132	0.10782088
203	0x3d9d2e6e	0.076748714
204	0xbd9bcb5e	-0.076071486
205	0xbe036583	-0.12831692
206	0xbdbb881b	-0.091568194
207	0x3df554ea	0.11979087
208	0x3dcc1c14	0.09966293
209	0x3d4e1adc	0.050318584
210	0x3b44c5fe	0.003002524
211	0x3d1ca3ed	0.03824227
212	0x3e00f6a3	0.12594084
213	0xbbc38cfe	-0.0059677353
214	0x3c4dcc3e	0.012560902
215	0x3d0eb833	0.034843635
216	0xbc57af70	-0.013164386
217	0xbd9dc800	-0.077041626
218	0x3cc34d13	0.023840463
219	0xbde81e49	-0.113339014
220	0xbc256bab	-0.010096471
221	0xbd0fb335	-0.035083015
222	0x3c891277	0.016732438
223	0x3d98f760	0.07469058
224	0x3d832050	0.064026475
225	0x3de2f9e5	0.1108282
226	0x3e10790b	0.14108674
227	0x3cd35ae4	0.025800176
228	0xbd4229ff	-0.04740333
229	0x3d0ebce2	0.0348481
230	0xbec6cc88	-0.3882792
231	0x3d2f94e5	0.042866606
232	0x3d2961b8	0.041352957
233	0x3dd7ffed	0.10546861
234	0x3d18fe8c	0.03735213
235	0xbdaec974	-0.08534518
236	0xbdb93002	-0.0904236
237	0xbde28132	-0.11059798
238	0xbc84ccfb	-0.016211024
239	0x3e44e8b4	0.19229394
240	0x3cfa2c5d	0.030538732
241	0xbbfbcd11	-0.007684358
242	0x3d230f3a	0.039809443
243	0x3cb45645	0.022013793
244	0xbe2a71b9	-0.16644944
245	0xbd6bd2fe	-0.057574265
246	0xbe1512f4	-0.14558011
247	0xbd10f833	-0.03539295
248	0xbd7cc056	-0.061706863
249	0x3e0f5ee3	0.1400104
250	0xbca893bd	-0.02057826
251	0x3c5f0d6d	0.013614041
252	0x3d4f64e2	0.05063332
253	0xbb87e791	-0.004147478
254	0xbcd0ce3e	-0.025488969
255	0xbda291e1	-0.079379804

fcs1.bias f4 [256]
0	0xbe93e8ce	-0.28888553
1	0xbe123fa9	-0.14282097
2	0xbdb60455	-0.08887545
3	0xbc1b52b5	-0.009480168
4	0xbe200efe	-0.15630719
5	0xbeb73884	-0.35785306
6	0xbe7460df	-0.23865078
7	0xbe7c70c3	-0.2465239
8	0xbe818acb	-0.25301203
9	0xbeae2924	-0.34015763
10	0xbdee9a14	-0.11650482
11	0xbd782acc	-0.06058769
12	0xbe2f9e8a	-0.17150322
13	0xbe5f8cb9	-0.21831025
14	0xbe041052	-0.1289685
15	0xbd83e56d	-0.06440244
16	0x3d655795	0.055991728
17	0xbdfe9720	-0.124311686
18	0xbe85b18d	-0.26112023
19	0xbde65c0c	-0.11248025
20	0xbd82ce82	-0.063870445
21	0xbdd318ab	-0.103074394
22	0x3cca466b	0.024691781
23	0xbdf58e32	-0.11990012
24	0xbe20fce9	-0.15721478
25	0xbdbf6ecb	-0.09347304
26	0xbe66edd3	-0.2255166
27	0xbd26f3cd	-0.04075985
28	0xbe0a195f	-0.13486241
29	0xbdfad341	-0.12247325
30	0x3d1b15f4	0.037862733
31	0xbe0c15c9	-0.13680185
32	0x3cc4e5ce	0.02403536
33	0x3cd4ae90	0.025962144
34	0xbe89b613	-0.26896724
35	0xbe28c5e0	-0.16481733
36	0xbe0aca01	-0.13553621
37	0xbe5a8a72	-0.21341875
38	0xbd8b8614	-0.06812683
39	0xbe0b8941	-0.13626577
40	0x3d85ec95	0.06539265
41	0x3c9c24e1	0.019060554
42	0xbe93ab7e	-0.28841776
43	0x3e021624	0.12703758
44	0xbe862f3e	-0.26207918
45	0xbe658a7f	-0.22416113
46	0x3d55efe0	0.052230716
47	0xbe88218a	-0.26588088
48	0xbdbb0b5e	-0.091330275
49	0xbe5eb128	-0.21747267
50	0xbe1019b3	-0.14072303
51	0x3ce28f49	0.027656214
52	0x3c18c622	0.009324582
53	0xbd8b7eab	-0.068112694
54	0x3e6f520e	0.23371145
55	0x3d3e3883	0.046440613
56	0x3dc86ef1	0.097867854
57	0xbc0c1953	-0.00855096
58	0xbe468f99	-0.19390716
59	0xbe066075	-0.13122733
60	0xbe432fb5	-0.19061168
61	0xbd8246d0	-0.06361163
62	0xbd5234e8	-0.051319987
63	0xbbc952da	-0.00614391
64	0xbe46d259	-0.19416179
65	0xbe9b66f3	-0.30351982
66	0x3ccfda7e	0.02537274
67	0xbe87698c	-0.26447713
68	0x3e000a22	0.12503865
69	0xbd0a326f	-0.033739503
70	0x3d5c8909	0.053841624
71	0xbe360715	-0.17776139
72	0xbda9cad1	-0.08290637
73	0xbd11d91a	-0.035607435
74	0xbe4cf068	-0.20013583
75	0xbe6b7fe4	-0.22998005
76	0xbe583935	-0.21115573
77	0xbe868182	-0.26270682
78	0xbe94f8f4	-0.29096186
79	0xbe7fc722	-0.24978307
80	0x3da82ef4	0.082120806
81	0xbdc2ff8c	-0.09521398
82	0xbea151c1	-0.31507686
83	0xbc15fa51	-0.009153918
84	0xbce375ee	-0.027766194
85	0xbdde9481	-0.108681686
86	0x3c3c82ec	0.011505824
87	0xbe1df466	-0.15425262
88	0xbe8b1840	-0.2716694
89	0xbe4793e0	-0.19490004
90	0xbdff7707	-0.124738745
91	0xbe434b82	-0.19071773
92	0xbea92661	-0.33037093
93	0x3ddd839c	0.10816118
94	0xbe0bfe71	-0.1367128
95	0xbe27a39a	-0.16371003
96	0x3d27e01f	0.040985223
97	0xbe8a1088	-0.26965737
98	0xbd73531f	-0.059405442
99	0xbe457fe8	-0.19287074
100	0xbe7e7c6f	-0.24852155
101	0xbd6f9f0f	-0.0585013
102	0x3e1d29cf	0.1534798
103	0xbdbcf8b6	-0.09227125
104	0xbd5ab5c5	-0.053396005
105	0xbe5baf21	-0.21453525
106	0xbe29bdaa	-0.16576257
107	0xbe93f6e3	-0.28899297
108	0xbda67242	-0.08127262
109	0xbdcaae33	-0.09896507
110	0xbe25907a	-0.16168395
111	0x3b22bf4c	0.002483326
112	0xbdae8866	-0.0852211
113	0x3e130437	0.14357077
114	0x3e34a9aa	0.17642847
115	0xbdb50e26	-0.08840589
116	0xbe348596	-0.17629084
117	0x3e37eaa2	0.17960599
118	0x3d8d021b	0.06885167
119	0xbe98cfd9	-0.29846075
120	0xbdadd76f	-0.08488356
121	0xbdb760c2	-0.08954002
122	0xbe4f93d1	-0.20271231
123	0xbe904ee3	-0.28185186
124	0xbe47e69c	-0.19521564
125	0xbe8d1065	-0.2755157
126	0x3d8074f7	0.06272309
127	0x3d6f0c41	0.058361296
128	0xbe59ae76	-0.21257958
129	0xbe5a8980	-0.21341515
130	0xbd7b1fc6	-0.0613096
131	0x3cd37f2e	0.02581748
132	0xbe5bfdba	-0.21483508
133	0xbd7b3db2	-0.061338134
134	0xbc971443	-0.018442279
135	0xbd0775c2	-0.033071287
136	0xbcafe7c5	-0.021472821
137	0x3d7f93da	0.06239686
138	0xbe43c807	-0.19119273
139	0x3e5245be	0.20534417
140	0x3d4836d3	0.04888041
141	0xbe1bc884	-0.1521321
142	0xbda3407b	-0.07971283
143	0x3e821527	0.25406763
144	0xbdf97dfb	-0.12182232
145	0x3e12bfec	0.14331025
146	0x3e63b8fb	0.22238533
147	0xbdf18537	-0.11792987
148	0x3e015c25	0.12632807
149	0xbe96d9fa	-0.29463178
150	0xbdc61e6b	-0.096737705
151	0x3d925ac6	0.0714622
152	0x3cfdc3ef	0.030977217
153	0xbea9c4d5	-0.33157983
154	0xbe24b7be	-0.16085717
155	0xbcdc1ad3	-0.02686826
156	0xbe032a1f	-0.12809037
157	0xbe632c69	-0.2218491
158	0xbe3204b1	-0.17384602
159	0xbde07f7c	-0.10961816
160	0xbeb30513	-0.3496481
161	0xbdfa5bf7	-0.12224572
162	0xbe754ccc	-0.23955077
163	0x3da50145	0.08056883
164	0xbead4a4b	-0.33845744
165	0xbe683e5d	-0.2268004
166	0xbe8bf99a	-0.27338868
167	0xbc423ab2	-0.011854814
168	0xbd5f5162	-0.054520972
169	0xbe81e537	-0.2537019
170	0xbdba05dd	-0.090831496
171	0x3dde91fe	0.108676895
172	0x3e079442	0.1324015
173	0x3e4aad7e	0.19792745
174	0x3db0400c	0.08605966
175	0xbc87beaa	-0.016570408
176	0x3db5f713	0.08885016
177	0xbdfe0fc4	-0.12405351
178	0xbe6a124b	-0.2285854
179	0x3e6bfee0	0.23046446
180	0xbdb04948	-0.08607727
181	0xbe3f27f1	-0.1866758
182	0xbe299046	-0.16558942
183	0x3d69b824	0.057060376
184	0xbd94a8ff	-0.07258796
185	0xbe0e801d	-0.13916059
186	0xbe49b53c	-0.19698042
187	0xbe438429	-0.19093384
188	0xbdb2f65c	-0.087383956
189	0xbe9026d0	-0.28154612
190	0xbe51b3f6	-0.20478806
191	0xbe9873c2	-0.29775816
192	0xbde6c926	-0.11268835
193	0x3e04250e	0.1290476
194	0x3e06f7ee	0.13180515
195	0xbdd7e79a	-0.10542221
196	0xbe721570	-0.2364099
197	0xbeaf6881	-0.34259418
198	0xbe217370	-0.15766692
199	0xbe9c0734	-0.30474246
200	0xbdbb5754	-0.09147516
201	0xbe13d2fc	-0.14435953
202	0x3d014cc5	0.031567354
203	0xbe4468c7	-0.19180594
204	0xbde46afd	-0.11153219
205	0x3c8de511	0.017321141
206	0xbd6ccd29	-0.057812843
207	0xbe23166a	-0.15926519
208	0xbecd5a94	-0.40108168
209	0xbe542725	-0.20718057
210	0xbe3eb88f	-0.18625091
211	0xbe25f898	-0.16208112
212	0xbde77b4d	-0.11302815
213	0xbe2ca2b3	-0.1685894
214	0xbdc81a27	-0.09770613
215	0x3e27e87d	0.16397281
216	0xbdf54f24	-0.119779855
217	0xbe276a65	-0.1634918
218	0x3e1eb611	0.1549914
219	0xbeaebaee	-0.3412699
220	0xbe70cd7d	-0.23515888
221	0x3cf19b64	0.029493041
222	0x3e748e74	0.23882467
223	0xbde7eaa1	-0.11324049
224	0xbe8852c2	-0.2662564
225	0x3dcf2a4c	0.10115489
226	0xbeab265a	-0.33427697
227	0xbe00ff31	-0.12597348
228	0xbe7bda27	-0.24594937
229	0xbda260a4	-0.07928589
230	0xbdf64d41	-0.12026454
231	0xbc535220	-0.012897998
232	0xbdecb78b	-0.115584455
233	0xbd8467bf	-0.064651005
234	0xbd99a41c	-0.075020045
235	0xbe57c4d2	-0.21071175
236	0xbe88c6d6	-0.267142
237	0x3d969cf5	0.07354156
238	0xbe2e8733	-0.17043762
239	0xbe7d6518	-0.24745595
240	0xbe465307	-0.1936761
241	0xbd2d22f8	-0.042269677
242	0xbe41dd4f	-0.18932079
243	0x3de5fbdf	0.11229681
244	0xbd09c091	-0.03363091
245	0xbe81d401	-0.2535706
246	0x3d869ade	0.06572507
247	0xbd4d856e	-0.050176077
248	0x3dd3bb37	0.10338443
249	0xbdc0e696	-0.09418981
250	0xbe039417	-0.1284946
251	0xbe66870c	-0.22512454
252	0x3e1c2ed0	0.15252233
253	0xbea24f15	-0.3170096
254	0xbde3fe43	-0.11132481
255	0xbdd01ee3	-0.10162141

fc2.weight f4 [128, 260]
0	0x3d35876c	0.0443186
1	0xbc91f44a	-0.017816681
2	0xbdee5d21	-0.11638857
3	0x3a49606f	0.0007681911
4	0xbde0fb6a	-0.109854534
5	0xbe6263f0	-0.22108436
6	0xbd925e8b	-0.07146939
7	0x3dd14179	0.10217566
8	0x3da2a6b4	0.07941952
9	0xbcba4bcf	-0.022741226
10	0x3c95dc66	0.01829357
11	0x3cd34516	0.025789779
12	0xbdc31c82	-0.09526922
13	0xbd0eada7	-0.034833577
14	0xbbfd1c0a	-0.00772429
15	0x3d38df99	0.045135114
16	0xbe75a7a1	-0.23989727
17	0xbcfd0a43	-0.030888682
18	0x3e39deec	0.18151444
19	0xbde97476	-0.11399166
20	0xbe21dfc5	-0.15808018
21	0xbd83a4ae	-0.064278945
22	0x3dcabc66	0.098992154
23	0x3dba1b5f	0.09087252
24	0xbdc74521	-0.09729982
25	0x3e11588f	0.14193939
26	0xbe510190	-0.20410752
27	0xbdc1aa6d	-0.09456334
28	0x3da6a04d	0.08136044
29	0x3d91dd15	0.07122246
30	0xbd362a08	-0.044473678
31	0x3d9f0543	0.077646755
32	0xbdc6f852	-0.09715332
33	0xbddcc1df	-0.107791655
34	0xbe74e4b7	-0.23915373
35	0x3c174ba4	0.009234343
36	0xbdc122cf	-0.09430467
37	0x3d27806a	0.04089395
38	0x3cb4eea9	0.022086458
39	0xbb5a6f66	-0.0033330559
40	0x3d786ff8	0.060653657
41	0xbe056f1d	-0.13030668
42	0x3e0f7322	0.14008763
43	0x3d1651ad	0.036698986
44	0xbdb2b878	-0.08726591
45	0xbe26146e	-0.16218731
46	0x3d7d3353	0.061816525
47	0xbe5bab2e	-0.21452019
48	0xbd2fe934	-0.04294701
49	0xbe78d63d	-0.24300475
50	0xbd60c6c3	-0.054877054
51	0xbd8ef417	-0.0698015
52	0xbc6cd1dc	-0.014454331
53	0xbdf32733	-0.11872711
54	0x3cd50855	0.02600495
55	0xbd23a072	-0.039947934
56	0x3dda2e22	0.106533304
57	0x3da05493	0.07828631
58	0xbde2f69d	-0.11082194
59	0x3e425c07	0.18980418
60	0x3ccd134a	0.025033612
61	0xbdf37fe9	-0.11889631
62	0xbc88dcf4	-0.016706921
63	0xbd220afc	-0.039561257
64	0xbd999478	-0.07499021
65	0x3c82d095	0.0159686
66	0xbd4f9a8c	-0.050684497
67	0x3e056e62	0.13030389
68	0xbe46f9fe	-0.19431302
69	0xbd16c5fb	-0.036809903
70	0xbd08c149	-0.033387456
71	0xbe1206c6	-0.14260396
72	0xbcec7992	-0.028866563
73	0xbd570935	-0.052499015
74	0x3d9d3c4c	0.07677516
75	0xbd9f6fd8	-0.077850044
76	0x3e154f3b	0.14581005
77	0x3c5ceb07	0.013483769
78	0xbe1f4a6f	-0.15555738
79	0xbdbc4e16	-0.09194581
80	0xbe6c6c4c	-0.23088187
81	0x3e1fb735	0.15597232
82	0xbc232151	-0.009956674
83	0x3e3661a0	0.17810678
84	0xbe6b4b7c	-0.22978014
85	0x3dafed81	0.08590222
86	0xbe110215	-0.1416095
87	0x3e100d6f	0.14067625
88	0xbe6b246c	-0.22963113
89	0xbe7ae8cc	-0.24502867
90	0xbe2fae94	-0.1715644
91	0xbe741fe1	-0.23840286
92	0xbe121fb6	-0.1426991
93	0xbea215e3	-0.31657323
94	0xbdf0e3b5	-0.11762182
95	0xbde708c3	-0.11280968
96	0x3d68494b	0.056710523
97	0xbe64429a	-0.22291031
98	0x3dbccc41	0.09218646
99	0xbe662985	-0.22476776
100	0xbcc4c6dd	-0.024020607
101	0x3cd93cb5	0.026518205
102	0xbe03eae4	-0.12882572
103	0xbdbe4791	-0.09290994
104	0xbe13895c	-0.14407867
105	0xbd9657dd	-0.07340977
106	0x3db06d7f	0.08614635
107	0x3dfe8563	0.12427785
108	0xbe41ad72	-0.1891382
109	0x3d9703d8	0.0737378
110	0xbe020de6	-0.12700614
111	0x3dbc31c0	0.091891766
112	0xbd106cd7	-0.035260048
113	0xbd0dd58c	-0.034627482
114	0xbdb2a3d2	-0.087226525
115	0x3e98fbb6	0.2987954
116	0xbcc9acde	-0.024618562
117	0xbcd956c5	-0.026530633
118	0xbd828e29	-0.06374771
119	0xbe77dc39	-0.24205102
120	0x3e016a80	0.12638283
121	0x3d8845f5	0.06653968
122	0xbe5bb626	-0.21456203
123	0x3d0320bf	0.03201365
124	0xbea4b772	-0.32171208
125	0xbb7e6188	-0.0038815457
126	0xbbbb932d	-0.005724332
127	0xbd1eddef	-0.03878587
128	0xbe56edcc	-0.2098915
129	0xbe4c9c51	-0.19981505
130	0xbced0ae0	-0.02893585
131	0xbd3f9078	-0.046768636
132	0x3da2e845	0.07954458
133	0xbdc78f1d	-0.097440936
134	0xbd1ba66a	-0.0380005
135	0xbe192164	-0.14954144
136	0xbd1db455	-0.038502056
137	0xbe41b977	-0.18918405
138	0x3cb69920	0.022289813
139	0xbe2b14ec	-0.167072
140	0xbe018980	-0.12650108
141	0x3d00f9d3	0.03148825
142	0xbc368795	-0.011140724
143	0xbe16d5ba	-0.14729968
144	0xbd0dd93a	-0.03463099
145	0x3ca1b9cc	0.019741915
146	0xbcffb1f2	-0.03121278
147	0xbe57d9cf	-0.21079181
148	0x3c0cac67	0.008586026
149	0x3dcca187	0.099917464
150	0xbe38ee79	-0.1805972
151	0x3bd12b0f	0.006383307
152	0xbe56c4ce	-0.20973513
153	0xbc381746	-0.011236018
154	0x3d814dde	0.0631368
155	0xbcf7f06a	-0.030266006
156	0xbe17fe84	-0.14843184
157	0xbd89db4c	-0.06731281
158	0xbdb4523c	-0.088047475
159	0xbe38f6d5	-0.18062909
160	0xbc776c56	-0.015101513
161	0xbd32c255	-0.04364236
162	0xbda31c09	-0.07964332
163	0x3c8d9a75	0.017285565
164	0xbe353210	-0.17694879
165	0xbdbb9b46	-0.091604754
166	0xbe3ea9c1	-0.18619443
167	0xbdaf3bbb	-0.085563146
168	0xbe28d116	-0.1648601
169	0xbbeb89f4	-0.007188076
170	0xbd9ae640	-0.07563448
171	0x3e11f50b	0.14253633
172	0x3e64ca96	0.22342905
173	0xbbb5a10e	-0.005542881
174	0xbd0a3be1	-0.03374851
175	0xbdc6bd02	-0.09704019
176	0xbdf16a98	-0.11787909
177	0x3e11cefe	0.14239118
178	0xbe04cb6b	-0.12968223
179	0x3d25fe15	0.040525515
180	0xbd017f07	-0.031615283
181	0x3d76f2db	0.0602902
182	0xbdb026d7	-0.08601158
183	0xbdb7a13c	-0.089663
184	0xbf01bd4e	-0.5067948
185	0xbe0ef632	-0.13961104
186	0x3e12ca1d	0.14334913
187	0x3beb75b2	0.0071856612
188	0x3d30f964	0.043206587
189	0xbe2dbdcf	-0.16966937
190	0xbd869b1b	-0.06572553
191	0xbdf5e521	-0.120065935
192	0x3dc3208d	0.09527693
193	0xbe8db250	-0.27675104
194	0xbac55294	-0.0015054517
195	0xbe1f138f	-0.15534805
196	0x3c1f0bee	0.009707434
197	0x3de61d65	0.11236075
198	0x3c170fca	0.009220073
199	0xbd6b1d8d	-0.05740123
200	0xbde564b4	-0.11200848
201	0xbc43dcae	-0.01195447
202	0xbe34c284	-0.17652327
203	0xbe21c21a	-0.157967
204	0xbd96d66e	-0.07365118
205	0xbab68b25	-0.0013926966
206	0xbda98d4e	-0.08278905
207	0xbd1cf480	-0.03831911
208	0xbdd1d3f4	-0.10245505
209	0xbd31af8f	-0.043380316
210	0xbe42efc9	-0.19036783
211	0x3d2dbc95	0.042416174
212	0xbd944caa	-0.07241185
213	0xbe09be9c	-0.13451618
214	0x3d37880f	0.04480749
215	0x3e0497f8	0.12948596
216	0xbd56dfcf	-0.052459534
217	0xbde19952	-0.11015572
218	0xbcfdb186	-0.030968439
219	0x3cd4a6fe	0.025958534
220	0xbcc68b1b	-0.024236253
221	0x3d9450d1	0.07241977
222	0xbe044abb	-0.12919132
223	0xbdf24112	-0.118288174
224	0xbd4b18d1	-0.049584214
225	0xbdfb10c2	-0.12259056
226	0xbd487829	-0.04894272
227	0xbd55068a	-0.05200819
228	0xbb452cae	-0.0030086446
229	0x3de3b4e5	0.11118487
230	0xbed35304	-0.41274273
231	0x3e1426d6	0.1446794
232	0xbd2f7e46	-0.042845033
233	0xbb0605d4	-0.0020450251
234	0xbc8fec97	-0.01756887
235	0x3dec4f26	0.11538534
236	0xbd8d8b9e	-0.069113955
237	0xbe18b628	-0.14913237
238	0xbd87cd43	-0.066309474
239	0xbc6808bd	-0.01416224
240	0xbc815876	-0.015789252
241	0xbdd8820a	-0.10571678
242	0x3ccfdefc	0.025374882
243	0xbdd41a47	-0.103565745
244	0x3d8eaded	0.069667675
245	0xbb55e369	-0.0032636768
246	0x3d67a7f0	0.056556642
247	0xbd5ddd66	-0.05416622
248	0xbe189fed	-0.14904757
249	0xbc36f7e1	-0.011167497
250	0xbea4aa18	-0.3216102
251	0x3d4268d5	0.047463257
252	0xbd43934d	-0.0477479
253	0xbe099c5e	-0.13438556
254	0x3d096df0	0.03355211
255	0xbe11ee0a	-0.14250961

fc2.bias f4 [128]
0	0xbdb0cc26	-0.08632688
1	0x3b22999a	0.0024810792
2	0x3ca6531e	0.020303305
3	0x3cf28e24	0.029608794
4	0xbd2adf9b	-0.041717153
5	0x3e362423	0.17787223
6	0x3bd86c7a	0.0066047283
7	0xbd388fb9	-0.04505894
8	0xbce82455	-0.028337637
9	0xbe01c9b9	-0.12674607
10	0x3d94e89d	0.0727093
11	0xbd303c5f	-0.043026324
12	0xbdfa277e	-0.12214564
13	0x3e279a68	0.16367495
14	0xbc002dd8	-0.00782343
15	0xbd820dea	-0.0635031
16	0x3e685513	0.22688703
17	0xbdf07725	-0.11741475
18	0xbe50463b	-0.20339291
19	0x3e117afd	0.14207073
20	0x3e8944a4	0.2681018
21	0xbd14dc45	-0.036342878
22	0x3e335f14	0.17516738
23	0xbdc66319	-0.0968687
24	0x3df6c112	0.12048544
25	0xbe411e2b	-0.18859164
26	0x3db1d42c	0.08683047
27	0x3e2e66a7	0.17031346
28	0xbdf25ba8	-0.11833888
29	0x3ed33817	0.4125373
30	0xbe0eaf00	-0.13933945
31	0xbdc31281	-0.09525014
32	0x3dacbf64	0.08434942
33	0xbd6b8738	-0.057502
34	0xbdc8df01	-0.098081596
35	0x3beadb65	0.007167267
36	0x3d4be9cd	0.049783517
37	0xbe0293ee	-0.12751743
38	0x3e085037	0.1331185
39	0xbd8f25be	-0.069896206
40	0x3e2411fa	0.16022483
41	0xbcc07412	-0.023492847
42	0xbdf503a6	-0.119635865
43	0xbd9e2099	-0.07721061
44	0xbdd09d4d	-0.10186253
45	0xbdae8fd0	-0.08523524
46	0x3d673b87	0.056453254
47	0x3e995dcc	0.29954374
48	0xbdcaa240	-0.09894228
49	0x3e4d3426	0.20039424
50	0x3e6c6fe1	0.23089553
51	0x3e3d7a15	0.18503602
52	0x3e0c1edc	0.13683647
53	0xbdaa5b30	-0.08318174
54	0x3dfd5eea	0.12371619
55	0xbdca9437	-0.09891551
56	0x3df96228	0.12176925
57	0xbded097b	-0.11574074
58	0xbda15bd3	-0.07878842
59	0x3e0e4440	0.13893223
60	0x3dde75d3	0.10862317
61	0xbd7eb3db	-0.062183242
62	0xbe3170dc	-0.17328209
63	0xbb7b3b06	-0.0038334741
64	0xbcb99e71	-0.022658559
65	0xbde9dd1f	-0.114191286
66	0x3e13c5c6	0.14430913
67	0x3c2cb5a0	0.01054135
68	0x3df974e2	0.12180497
69	0xbdef2621	-0.116771944
70	0xbdbaaf8e	-0.09115516
71	0x3e1000c7	0.14062797
72	0xbe09016b	-0.13379447
73	0x3e24baa0	0.16086817
74	0x3eab2ed3	0.33434162
75	0xbc96a95d	-0.018391306
76	0x3dc66475	0.096871294
77	0xbd70879d	-0.05872308
78	0x3d13efad	0.036117245
79	0x3e34ce8c	0.17656916
80	0xbddf0c1e	-0.10890983
81	0xbaa0941e	-0.0012251174
82	0x3e6e6fd7	0.23284851
83	0xbd88ee73	-0.066861056
84	0x3d134713	0.035956454
85	0x3da57ae5	0.08080081
86	0xbdc769a0	-0.09736943
87	0xbe0ad292	-0.13556889
88	0x3e072471	0.13197495
89	0xbda6e029	-0.08148224
90	0xbe107f5d	-0.14111085
91	0xbd712852	-0.058876343
92	0x3d5d4494	0.05402048
93	0xbe127ee3	-0.14306216
94	0xbd7adcd0	-0.06124574
95	0x3dc0533e	0.09390877
96	0x3e84f383	0.25967035
97	0x3de75bbd	0.112967946
98	0x3e251870	0.16122603
99	0x3c8361ca	0.01603784
100	0xbdeacc92	-0.114648
101	0xbd5e3d20	-0.054257512
102	0xbd1ee512	-0.038792677
103	0x3e79141a	0.24324074
104	0xbe0e1089	-0.13873495
105	0xbd3bd53a	-0.045857646
106	0xbdc6551f	-0.09684204
107	0x3dc4a67c	0.09602067
108	0x3e358371	0.17725922
109	0xbd8750f0	-0.066072345
110	0x3e1a9e3f	0.15099429
111	0x3e838356	0.2568614
112	0x3e405ba8	0.18784964
113	0x3d771712	0.060324736
114	0xbd599ec7	-0.053129937
115	0xbe1724f9	-0.14760198
116	0xbd3c95ca	-0.046041287
117	0x3d4d74b7	0.050160136
118	0x3e3116a4	0.17293793
119	0xbd43b283	-0.047777664
120	0x3d2a100e	0.041519217
121	0xbd9c6fe8	-0.07638532
122	0x3e07ab2a	0.13248888
123	0x3c4f6185	0.012657528
124	0xbd95473a	-0.07288976
125	0xbe0042b7	-0.1252545
126	0xbd9c64a2	-0.07636382
127	0xbc1697aa	-0.009191433

fc3.weight f4 [1, 128]
0	0xbe16c4fe	-0.14723584
1	0x3d1dc4a8	0.038517624
2	0x3d964837	0.07337993
3	0x3d80c12f	0.06286847
4	0xba42dfa4	-0.0007433838
5	0x3daa7fa6	0.08325128
6	0x3a5505a5	0.0008126146
7	0xbe2bf53d	-0.1679277
8	0xbda299cf	-0.07939493
9	0xbdf87d98	-0.1213333
10	0x3d013b9a	0.03155098
11	0xbd8e0330	-0.06934202
12	0xbe24bc85	-0.1608754
13	0x3d534ada	0.051585056
14	0x3d15b479	0.036549065
15	0x3d4465b5	0.047948558
16	0x3da010ee	0.07815729
17	0xbd3808b5	-0.04493018
18	0xbdda28e9	-0.10652334
19	0x3d05c6a6	0.03266015
20	0x3d9359ed	0.07194886
21	0xbe55d85e	-0.20883319
22	0x3d1a5e1c	0.037687406
23	0xbd5faa1c	-0.05460559
24	0x3d5453be	0.051837675
25	0xbd9169b9	-0.07100243
26	0x3d173829	0.036918793
27	0x3cb1dd51	0.021711977
28	0xbde29f79	-0.11065573
29	0x3e0ca5e4	0.13735157
30	0xbd55f0b3	-0.0522315
31	0xbcadeb61	-0.021230401
32	0x3d3c0ab1	0.045908634
33	0xbd48d30a	-0.049029388
34	0xbb89c56e	-0.0042044437
35	0x3b2bcb85	0.0026213836
36	0x3c9cd21f	0.019143162
37	0xbd3b27c8	-0.045692235
38	0x3ddcc5be	0.10779904
39	0xbe1ed1d9	-0.15509738
40	0x3d7cf6d1	0.06175882
41	0xbda7abda	-0.08187075
42	0xbd2ef719	-0.04271612
43	0xbd08bb4d	-0.03338175
44	0xbdf079fb	-0.11742016
45	0xbd1c52ed	-0.03816502
46	0x3d828e49	0.06374795
47	0x3e04463d	0.12917419
48	0xbd44c32b	-0.04803769
49	0x3d5e82cb	0.054323953
50	0x3deef890	0.11668503
51	0x3d12721f	0.035753366
52	0x3d1a9d9c	0.037747964
53	0xbe06429a	-0.13111344
54	0x3ce94380	0.02847457
55	0xbd9cc980	-0.076556206
56	0x3d26553a	0.040608622
57	0xbc9bcfbc	-0.019019954
58	0xbe63fece	-0.22265169
59	0x3d21a1dc	0.039461
60	0x3c3d61ec	0.011558991
61	0xbe25a8a7	-0.16177617
62	0xbd3087e3	-0.04309834
63	0x3c0265c1	0.00795883
64	0x3d0db7e0	0.034599185
65	0xbd920948	-0.071306765
66	0x3d2add4a	0.041714944
67	0x3d084be5	0.033275504
68	0x3d5ef526	0.05443301
69	0xbd4c3f6a	-0.049865164
70	0xbcf5b928	-0.029995516
71	0x3d47b562	0.048756965
72	0xbdc74339	-0.097296186
73	0x3d53f291	0.051745
74	0x3dd8e16d	0.105898716
75	0x3d961e6c	0.07330021
76	0x3ce1e75c	0.027576141
77	0xbc0c1365	-0.008549546
78	0x3d0a1283	0.03370906
79	0x3d9c344b	0.076271616
80	0xbd989f8e	-0.07452308
81	0x3cacec35	0.021108726
82	0x3de9cb4c	0.11415729
83	0xbd9b6d21	-0.07589174
84	0x3cb624c8	0.022234336
85	0x3d244f9f	0.040114995
86	0xbd5413ec	-0.05177681
87	0xbcfafcc5	-0.030638108
88	0x3d44c5b9	0.048040126
89	0xbd0812e0	-0.033221126
90	0xbdcd9e9d	-0.10040019
91	0x3ccc4044	0.024932988
92	0x3cd50878	0.026005015
93	0xbd3f1823	-0.046653878
94	0xbdde8879	-0.10865874
95	0x3d38c563	0.045110118
96	0x3db8dde5	0.09026698
97	0x3d4cf393	0.050036978
98	0x3db7c1ae	0.08972488
99	0x3de60ab6	0.11232512
100	0xbd091b6f	-0.03347343
101	0xbcefc392	-0.02926806
102	0xbdf20f68	-0.11819345
103	0x3d575c65	0.05257835
104	0xbccd35ad	-0.025050009
105	0xbdb84236	-0.08997004
106	0xbdeb9f4f	-0.11504995
107	0x3cb24a12	0.021763835
108	0x3d58a115	0.052887995
109	0xbdfcb31d	-0.12338851
110	0x3c6c3066	0.014415836
111	0x3dc03305	0.09384731
112	0x3d5a06b3	0.053229045
113	0x3cca949c	0.024729066
114	0xbd0655ef	-0.032796796
115	0xbe112fb8	-0.1417836
116	0x3a8b1f67	0.0010614217
117	0x3dc5088e	0.09620772
118	0x3ccc2259	0.024918722
119	0xbdb88237	-0.090092115
120	0x3e2871b9	0.16449632
121	0xbd7f48c1	-0.062325243
122	0x3d271c52	0.040798493
123	0x3dff64e3	0.124704145
124	0xbe1880ee	-0.14892933
125	0xbcba7bfc	-0.022764198
126	0xbe298d8a	-0.16557899
127	0x3dc80221	0.09766031
